# WEIGHTS_GENERATION (example)

layer {
  name: "w_relu"
  type: "ReLU"
  bottom: "input"
  top: "w_relu"
}

layer {
  name: "w_pool"
  type: "Pooling"
  bottom: "w_relu"
  top: "w_pool"
  pooling_param {
    pool: AVE
    global_pooling: true
  }
}
layer {
  name: "w_score"
  type: "InnerProduct"
  bottom: "w_pool"
  top: "w_score"
  param {
    lr_mult: 1
    decay_mult: 1
  }
  param {
    lr_mult: 2
    decay_mult: 0
  }
  inner_product_param {
    num_output: 3  # NUMBER OF DOMAINS
    weight_filler {
      type: "gaussian"
      std: 0.01
    }
    bias_filler {
      type: "constant"
      value: 0
    }
  }
}
layer {
  name: "w_soft"
  type: "Softmax"
  bottom: "w_score"
  top: "w_soft"
  softmax_param {
    axis: 1
  }
}

layer {
  name: "w_slicer"
  type: "Slice"
  bottom: "w_soft"
  top: "weights_1"
  top: "weights_2"
  top: "weights_3"
  slice_param {
    axis: 1
  }
  
}



# CORE MODULE

layer {
    name: "wbn1"
    bottom: "bottom"
    bottom: "weights_1"
    top: "wbn1"
    type: "MultiModalBatchNorm"
}

layer {
    name: "wbn2"
    bottom: "bottom"
    bottom: "weights_2"
    top: "wbn2"
    type: "MultiModalBatchNorm"
}

layer {
    name: "wbn3"
    bottom: "bottom"
    bottom: "weights_3"
    top: "wbn3"
    type: "MultiModalBatchNorm"
}

layer {
  name: "eltwise-sum"
  type: "Eltwise"
  bottom: "wbn1"
  bottom: "wbn2"
  bottom: "wbn3"
  top: "wbn"
  eltwise_param { 
  	operation: SUM 
  }
}
